Shooting Range/results/AI_shooter_manager/AI_shooter_manager/AI_shooter_manager-1001.onnx (onnx, 86286 bytes, 8 tensors)

action_model._continuous_distribution.log_sigma f4 [1, 14]
0.03659331 0.037595402 0.03648837 0.038346794 0.038042374 0.038706314 0.036791306 0.03697598
0.03799825 0.038448926 0.03766364 0.03704397 0.037207045 0.038675066
00000000: dee2 153d a3fd 193d d474 153d 8711 1d3d
00000010: 52d2 1b3d 838a 1e3d 7bb2 163d 2074 173d
00000020: 0ea4 1b3d 9f7c 1d3d 3045 1a3d 6bbb 173d
00000030: 6a66 183d bf69 1e3d

action_model._continuous_distribution.mu.bias f4 [14]
0.00010017782 0.00032540076 0.0005107531 0.00017315111 -2.6704833e-05 -0.00030394242 4.477038e-05 -6.946302e-05
0.00015126882 -0.00049649423 -0.00024091655 7.128682e-05 -1.483283e-07 -1.3012854e-06
00000000: 8f16 d238 8d9a aa39 0fe4 053a e68f 3539
00000010: 3104 e0b7 765a 9fb9 d4c7 3b38 adac 91b8
00000020: ea9d 1e39 2a27 02ba 8b9e 7cb9 d27f 9538
00000030: 2c44 1fb4 d3a7 aeb5

action_model._continuous_distribution.mu.weight f4 [14, 128]
-0.0010947861 -0.01252629 0.00761313 0.01890625 0.011587082 -0.014312114 -0.038387474 0.032758724
-0.007310922 -0.022587476 0.0024455755 -0.0042716516 0.0008063266 -0.009177535 -0.009429698 0.01921609
-0.009078395 -0.006483301 0.010299699 0.012860358 0.022284376 -0.011283128 -0.007170812 -0.02175847
0.004394313 -0.0036533165 0.014137671 0.026314113 -0.0135879675 -0.005608737 0.00022792428 0.015345953
0.00082343235 -0.014022615 -0.01898225 -0.010951015 -0.026751464 -0.025688296 -0.011090257 -0.006150617
0.03551698 -0.00588047 -0.019194165 -0.017805457 0.006833131 -0.0015964241 -0.002165555 0.008372833
-0.014826678 0.009152858 -0.004559854 -0.013764697 0.022667145 0.009857128 -0.010182503 0.0041822623
-0.042373884 -0.0026108332 0.0022979989 -0.00084144174 -0.011859317 0.0043256166 -0.037542917 -0.0039224867
0.021384068 0.00028339226 0.0044081598 -0.022999914 0.01709176 -0.03350204 0.00038722812 -0.0026674801
0.0019410545 0.007458679 0.0010847191 0.013123051 0.0007891284 -0.015724296 0.016749669 -0.025517233
-6.6814373e-06 -0.010901486 0.028693989 0.0022165058 0.0014968038 0.020149032 0.002839148 0.022219708
0.0102886185 0.038394246 0.02952604 0.0069711725 -0.018515358 0.013521766 0.004455779 0.013340396
0.0203148 -0.023390258 -0.013715543 -0.010590223 0.025229862 0.030085044 0.0029351232 -0.0018247301
-0.0051216423 -0.005774753 -0.01026072 -0.019851504 0.012710435 0.030056192 -0.0066603855 -0.0056223
3.603187e-05 0.016649498 0.018845217 0.0037142588 0.02466444 0.023974199 -0.013026692 0.008110219
0.013155638 -0.009155953 -0.020078395 -0.017157583 0.024332868 -0.009943231 0.01353604 -0.022410305
-0.007168055 0.027834399 -0.016645713 0.0340154 0.0064889225 -0.031721212 -0.00021881367 0.012265142
-0.020439673 -0.008911425 0.01367782 -0.02077594 -0.018862413 0.005736588 -0.0067336834 -0.018649189
0.0029204001 0.0025101989 0.0025792655 -0.0062628863 0.013321914 0.016018309 -0.03929841 0.019774094
0.011668589 -0.044495855 -0.0054998123 -0.021646524 -0.035779767 0.016065167 -0.0019786682 -0.038287736
0.002736606 -0.0058241715 -0.037703294 0.012646803 0.0004219541 0.018649893 0.00957142 -0.0020322567
-0.02766744 -0.005708235 -0.002046716 0.025321918 0.029992519 0.0063489424 0.01586698 0.017235259
-0.017373748 0.014425634 0.009120428 0.012072172 0.018933581 0.021728417 0.03675508 -0.0043941718
0.0047733234 0.014699819 0.0026427717 -0.021338461 0.014569382 -0.010058174 0.0025046717 -0.0035619214
-0.0055023595 0.0034505904 -0.005665069 -0.003823996 -0.0316561 -0.00092536135 -0.003112825 0.018551067
0.014820549 -0.0028555372 0.013181653 0.0042442926 -0.00023400236 -0.0068620485 0.023057839 0.0047243317
-0.018686293 0.005430672 0.017301444 -0.008018522 -0.0060830167 0.010183176 0.017332869 0.043866366
0.0036829095 0.019923689 0.0016223395 -0.0005863804 -0.0255954 -0.020408152 0.008241811 -0.002516786
0.010770573 -0.023464268 0.00434854 0.015769666 -0.0010250816 0.032674797 -0.013315124 -0.016773107
0.016966868 -0.009432715 -0.013574145 0.036424745 0.0056887595 0.03063956 -0.004545535 0.016972432
-0.022058362 0.013240664 0.013243654 -0.014060047 -0.003952655 0.010903361 0.0015886555 -0.024813341
0.009348498 -0.018958507 -0.051939607 -0.007408116 -0.0016091568 0.025735745 -0.01816009 0.005582401
00000000: ed7e 8fba 113b 4dbc 9077 f93b 48e1 9a3c
00000010: bfd7 3d3c 5b7d 6abc 2f3c 1dbd 032e 063d
00000020: 7590 efbb 5f09 b9bc f345 203b 36f9 8bbb
00000030: aa5f 533a 5f5d 16bc 057f 1abc 106b 9d3c
00000040: 8cbd 14bc df71 d4bb 12c0 283c 40b4 523c
00000050: b98d b63c dedc 38bc 22f9 eabb d23e b2bc
00000060: 2bfe 8f3b 7b6c 6fbb b1a1 673c b290 d73c
00000070: 11a0 5ebc 7fc9 b7bb f5fe 6e39 986d 7b3c
00000080: 9cdb 573a 1cbf 65bc aa80 9bbc e36b 33bc
00000090: e325 dbbc 4370 d2bc e9b3 35bc 1d8b c9bb
000000a0: 417a 113d f5b0 c0bb 153d 9dbc c0dc 91bc
000000b0: 75e8 df3b 1b3f d1ba fceb 0dbb 352e 093c
000000c0: 98eb 72bc def5 153c d46a 95bb 5385 61bc
000000d0: 73b0 b93c cb7f 213c 83d4 26bc 5c0b 893b
000000e0: 3d90 2dbd 831a 2bbb 069a 163b 3394 5cba
000000f0: 954d 42bc e7bd 8d3b 9ac6 19bd 3488 80bb
00000100: a42d af3c 4494 9439 5372 903b 516a bcbc
00000110: 0504 8c3c 6f39 09bd e104 cb39 e4d0 2ebb
00000120: fb6a fe3a ef67 f43b 222d 8e3a 1102 573c
00000130: 83dd 4e3a 3dd0 80bc 9a36 893c 8409 d1bc
00000140: 1c31 e0b6 259c 32bc a80f eb3c cc42 113b
00000150: 6730 c43a 950f a53c 0011 3a3b 1b06 b63c
00000160: 9891 283c 4943 1d3d 98e0 f13c 6f6e e43b
00000170: 85ad 97bc 668a 5d3c c901 923b ad91 5a3c
00000180: 396b a63c ed9c bfbc 28b7 60bc 9d82 2dbc
00000190: dbae ce3c e974 f63c 325b 403b c82b efba
000001a0: 73d3 a7bb 243a bdbb 941c 28bc 9f9f a2bc
000001b0: 6e3f 503c 6738 f63c 5d3f dabb 453b b8bb
000001c0: ed20 1738 8764 883c 4961 9a3c ec6a 733b
000001d0: 140d ca3c 8a65 c43c e86d 55bc b9e0 043c
000001e0: bf8a 573c da02 16bc 727b a4bc 0f8e 8cbc
000001f0: b955 c73c efe8 22bc 44c6 5d3c d195 b7bc
00000200: 01e2 eabb f704 e43c 975c 88bc bb53 0b3d
00000210: 07a1 d43b 1aee 01bd 5971 65b9 bcf3 483c
00000220: 1a71 a7bc 3a01 12bc ef18 603c 4e32 aabc
00000230: 5985 9abc fdf9 bb3b 3ba6 dcbb 2fc6 98bc
00000240: 2f64 3f3b 2682 243b e508 293b e638 cdbb
00000250: 2844 5a3c d438 833c 5ff7 20bd 48fd a13c
00000260: 9c2d 3f3c 4941 36bd c537 b4bb 0d54 b1bc
00000270: ce8d 12bd 199b 833c 8bac 01bb 9ad3 1cbd
00000280: a158 333b b1d8 bebb c56e 1abd 8934 4f3c
00000290: b839 dd39 a9c7 983c 72d1 1c3c 9c2f 05bb
000002a0: d4a6 e2bc 250c bbbb 3222 06bb e96f cf3c
000002b0: dfb2 f53c ca0a d03b 78fb 813c f530 8d3c
000002c0: 6453 8ebc 7f59 6c3c d96d 153c 5cca 453c
000002d0: 991a 9b3c cbff b13c 7f8c 163d fcfc 8fbb
000002e0: 8a69 9c3b 82d7 703c 5a32 2d3b ffcd aebc
000002f0: 6bb4 6e3c 0acb 24bc 6b25 243b 206f 69bb
00000300: 234d b4bb 4d23 623b 0ba2 b9bb 029c 7abb
00000310: d4a9 01bd f393 72ba 8a00 4cbb 68f8 973c
00000320: e3d1 723c f723 3bbb dcf7 573c b513 8b3b
00000330: 885e 75b9 09db e0bb cbe3 bc3c 91ce 9a3b
00000340: ff13 99bc c7f3 b13b c2bb 8d3c 1e60 03bc
00000350: 0b54 c7bb 56d7 263c a9fd 8d3c 38ad 333d
00000360: f85c 713b 0137 a33c aea4 d43a 53b7 19ba
00000370: 72ad d1bc ff2e a7bc a908 073c aaf0 24bb
00000380: 0f77 303c 2338 c0bc 337e 8e3b 632f 813c
00000390: 085c 86ba 02d6 053d ae27 5abc c167 89bc
000003a0: 1afe 8a3c ad8b 1abc 1766 5ebc 1d32 153d
000003b0: c668 ba3b d1ff fa3c b6f2 94bb c509 8b3c
000003c0: bdb3 b4bc 5fef 583c e9fb 583c 1d5c 66bc
000003d0: 4685 81bb 03a4 323c 6f3a d03a 5945 cbbc
000003e0: 712a 193c df4e 9bbc a0be 54bd c8bf f2bb
000003f0: 58ea d2ba c5d3 d23c 78c4 94bc 93ec b63b

action_model._discrete_distribution.branches.0.weight f4 [1, 128]
0.010325938 -0.008106727 -0.008973668 -0.007503617 0.007928806 -0.004281217 -0.006424663 -0.0041451585
-0.0067122593 -0.006277696 -0.004739817 -0.003902775 -0.003174881 -0.011578502 0.00962407 -0.013203412
-0.0023513902 -0.006746059 0.005802754 0.01672013 0.008636577 0.013433178 0.00514308 0.016048191
-0.00500965 -0.010765642 0.009012594 0.008039727 -0.017299393 -0.001919118 -0.0019457234 -0.0003990905
-0.019776773 -0.00037665552 -0.0061144168 -0.008135318 -0.0064322576 0.008321839 -0.0032595217 0.009096723
-0.003221338 0.004170121 -0.011524387 -0.00067296426 -0.0024719152 -0.021360045 -0.0024158254 -0.0025282716
-0.0025789521 0.018494999 0.0029437987 -0.00032629745 -0.0005129438 -0.00052529335 0.002817677 -0.008824174
-0.013608122 -0.008791645 -0.01616961 0.009463037 0.0063365707 -0.006349377 -0.004400116 0.009806099
0.00738869 -0.009917985 0.003244883 0.013722824 -0.0014230382 -0.012583668 0.001879101 -0.004750737
-0.0053340844 0.0018355085 -0.008523804 -0.009399473 -0.004031677 0.0006644244 -0.007377878 0.0014989198
-0.00779624 -0.0050958893 0.0010010011 0.0081841955 -0.014453353 -0.0019779038 0.0052509387 0.007870084
0.0028405618 -0.014305043 -0.0013807396 -0.0052223257 -0.0061196885 -0.017840208 0.010014156 -0.002708667
-0.007635855 0.018079137 -0.0004962843 0.008336429 -0.0046631843 -0.0033434778 -0.0045103375 0.0043504345
0.0002178439 -0.012482477 0.008421124 -0.003024478 -0.0042121117 0.0007379251 -0.005982389 -0.003018439
-0.0125341555 0.0085236095 -0.0022628957 -0.002759136 -0.011670152 0.009451041 0.0050649503 0.0039180843
-0.0079426225 -0.008499327 0.012775937 0.008010802 -0.012860239 -0.014607104 0.013521776 0.01586877
00000000: 202e 293c 14d2 04bc 4b06 13bc e7e0 f5bb
00000010: d3e7 013c 7449 8cbb fb85 d2bb 1cd4 87bb
00000020: 83f2 dbbb 22b5 cdbb 7850 9bbb b3c5 7fbb
00000030: aa11 50bb c2b3 3dbc 46ae 1d3c 2053 58bc
00000040: c819 1abb 0b0e ddbb 0725 be3b a7f8 883c
00000050: 6e80 0d3c d516 5c3c 4887 a83b 7f77 833c
00000060: fd27 a4bb 6062 30bc 8fa9 133c 0fb9 033c
00000070: 75b7 8dbc ea8a fbba a507 ffba 053d d1b9
00000080: e602 a2bc d979 c5b9 725b c8bb ff49 05bc
00000090: b0c5 d2bb 5358 083c b39d 55bb 6c0a 153c
000000a0: 151d 53bb 83a5 883b c8d0 3cbc de69 30ba
000000b0: dbff 21bb 43fb aebc d352 1ebb 5cb1 25bb
000000c0: a303 29bb d382 973c bfec 403b e712 abb9
000000d0: 1377 06ba d7b3 09ba c7a8 383b 4593 10bc
000000e0: 9af4 5ebc d50a 10bc 2176 84bc db0a 1b3c
000000f0: 02a3 cf3b 6f0e d0bb d92e 90bb c3a9 203c
00000100: d31c f23b 0b7f 22bc 1aa8 543b b2d5 603c
00000110: 3d85 baba bb2b 4ebc 2b4c f63a 12ac 9bbb
00000120: 8bc9 aebb 7295 f03a 6da7 0bbc 3f00 1abc
00000130: 281c 84bb c42c 2e3a 20c2 f1bb 6777 c43a
00000140: 9a77 ffbb 6bfb a6bb 0634 833a 0117 063c
00000150: c2cd 6cbc b89f 01bb 1110 ac3b 86f1 003c
00000160: b828 3a3b b35f 6abc eff9 b4ba 0b20 abbb
00000170: ab87 c8bb a125 92bc 6a12 243c e483 31bb
00000180: 3236 fabb b31a 943c 1319 02ba 8495 083c
00000190: a0cd 98bb 401e 5bbb 74cb 93bb 178e 8e3b
000001a0: 076d 6439 4e83 4cbc c1f8 093c 5236 46bb
000001b0: c105 8abb 5171 413a eb07 c4bb 01d1 45bb
000001c0: 0f5c 4dbc 9ca6 0b3c 174d 14bb 9fd2 34bb
000001d0: 2a34 3fbc 8ad8 1a3c e2f7 a53b 4663 803b
000001e0: c621 02bc c340 0bbc 2a52 513c bd3f 033c
000001f0: c0b3 52bc a252 6fbc 708a 5d3c 39ff 813c

network_body._body_endoder.seq_layers.0.bias f4 [128]
0.0005207689 -0.00070772495 0.0003067687 0.00029430323 -0.00033169106 -0.0007399955 -2.0090749e-21 -0.0006463359
-1.2565834e-25 -0.0014892266 -2.3632567e-05 -0.0011624804 -0.0011216237 0.00039112236 -0.00049467536 -0.00010306838
-3.0234857e-22 -0.000640501 -0.00093146414 4.6580171e-32 -0.0010919076 -0.0019645216 2.3365518e-20 -4.005315e-08
0.00024217964 -0.00055502116 -0.0014191418 -0.0006799131 -0.00037811993 -2.4303123e-05 -0.0012536938 -1.5638689e-10
6.304676e-05 -0.001024474 6.6746276e-25 5.7355388e-05 -0.0022443086 -0.00026079436 -0.00090384885 -6.232186e-11
-0.0009555379 6.1192196e-08 0.00058695587 0.0011899794 -0.0004295505 -0.00032243674 -0.00010031045 8.626608e-08
1.6777735e-13 -0.0004943914 -0.0013704115 -0.000259508 0.00029340392 4.2124184e-13 4.894228e-23 9.9587705e-05
-1.5576246e-09 6.263805e-05 -0.0006388516 1.9446432e-27 0.0009880429 0.00032354437 -0.0018099636 -0.0002695262
-7.849435e-06 -1.0759194e-07 -0.00011386299 -0.0013405755 -1.11454205e-11 -0.00015315624 -0.0008383556 2.5942607e-20
-0.0018491374 -9.5825694e-32 -0.00093462673 -0.0005014387 -1.4867455e-20 -0.00095880555 -0.00023036476 -0.00061954395
-0.00072178745 6.8262575e-06 0.0005282925 -0.0004168386 -0.0013087532 7.387551e-05 -0.0014535355 0.00014509105
-0.000988585 0.00071407005 -0.00148913 3.113095e-08 -3.149988e-11 -3.9573862e-08 -0.0003376657 -2.3234674e-32
-0.0010878431 -0.0009013941 -0.0009454482 -0.0010465604 -0.0004604878 -1.0136352e-09 -0.0011587718 0.00013546494
-8.047203e-05 -0.00018947269 -0.00040266954 8.886433e-33 -0.0019992942 8.660337e-05 -0.0005324718 0.00043778226
-0.0005499501 0.0021199547 -0.0014877153 -0.0008248406 -6.9219315e-16 -0.0002196899 -0.0023489613 -0.00037465748
-0.0004889809 -0.0005963483 -7.8192636e-05 -1.5938664e-06 -0.0009854913 -0.0011393012 -0.0009386409 -0.00062666764
00000000: 3684 083a 9e86 39ba ccd5 a039 b64c 9a39
00000010: d2e6 adb9 42fc 41ba 29cd 179d de6e 29ba
00000020: b88e 1b96 2732 c3ba 8d3e c6b7 5f5e 98ba
00000030: 7203 93ba 8e0f cd39 1aad 01ba 6a26 d8b8
00000040: 2dc2 b69b 4be7 27ba 802d 74ba abdb 710b
00000050: 571e 8fba 34bf 00bb 5bae dc1e e706 2cb3
00000060: 9af1 7d39 d77e 11ba 7f02 baba 323c 32ba
00000070: 663e c6b9 8fde cbb7 fc52 a4ba fff2 2baf
00000080: f937 8438 a547 86ba d991 4e17 e190 7038
00000090: 4015 13bb 3abb 88b9 45f0 6cba 170c 89ae
000000a0: 107d 7aba c468 8333 f1dd 193a 15f9 9b3a
000000b0: 4b35 e1b9 ba0c a9b9 c35d d2b8 4741 b933
000000c0: 87e6 3c2a 0c9a 01ba 619f b3ba 930e 88b9
000000d0: 02d4 9939 5923 ed2a 9cab 6c1a bed9 d038
000000e0: 0b14 d6b0 8c5c 8338 9b78 27ba 0d12 1a13
000000f0: 3881 813a 64a1 a939 4d3c edba 324f 8db9
00000100: 11b1 03b7 4b0d e7b3 bac9 eeb8 40b6 afba
00000110: 8312 44ad 9198 20b9 18c5 5bba 6005 f51e
00000120: c15e f2ba 19c7 f88b bd01 75ba fb72 03ba
00000130: 4d6b 8c9e 5a58 7bba 128e 71b9 e468 22ba
00000140: 5636 3dba 1b0d e536 1c7d 0a3a 218b dab9
00000150: 788a abba 9ded 9a38 8f84 beba 9523 1839
00000160: 6893 81ba 6e30 3b3a e92e c3ba d7b4 0533
00000170: b689 0aae ecf7 29b3 b908 b1b9 5c48 f18a
00000180: f595 8eba 894b 6cba f4d7 77ba bd2c 89ba
00000190: a06d f1b9 1e50 8bb0 eee1 97ba 980b 0e39
000001a0: 18c3 a8b8 30ad 46b9 641d d3b9 6290 380a
000001b0: 9706 03bb d59e b538 9495 0bba 2486 e539
000001c0: 872a 10ba f0ee 0a3b 71ff c2ba 1e3a 58ba
000001d0: d782 47a6 8f5c 66b9 08f1 19bb ad6d c4b9
000001e0: f42e 00ba 4254 1cba 5afb a3b8 d5ec d5b5
000001f0: 9a2b 81ba 9b54 95ba 200f 76ba f446 24ba

network_body._body_endoder.seq_layers.0.weight f4 [128, 17]
-0.08972319 0.0056058667 0.08349855 -0.13651553 -0.11295659 0.30035916 -0.025148535 -0.3306729
-0.12428726 -0.12776127 0.12039012 -0.1922263 -0.05776815 0.12492776 -0.12186898 0.11221473
0.30849573 0.075448535 0.35361558 -0.23851055 -0.0023462123 -0.15242378 -0.097853184 -0.008832416
0.35634965 0.27404606 0.24741904 -0.27187264 0.25100517 0.089495346 0.54819864 0.11328349
-0.41939327 0.31413072 0.06964406 0.5020792 0.19147453 -0.24935417 -0.090307556 0.2438282
0.34092236 0.17698026 0.1332447 0.36249834 -0.054368254 0.18335868 0.4476536 0.6152344
-0.19575067 -0.2976111 0.13376832 0.11535716 -0.4334171 0.3915005 -0.012822269 -0.14866427
0.020498453 0.09568375 -0.58961743 -0.11868492 -0.081713334 0.154579 0.16989824 -0.48561192
0.5969235 0.3020166 -0.075210415 0.06984788 0.12368807 0.02154789 0.22369598 -0.5188264
0.45197088 0.3029883 0.072201416 -0.042843424 -0.16779414 -0.22263634 -0.036336053 0.5119415
-0.013429607 -0.08620995 -0.40257233 -0.3294413 0.20750666 0.24885732 -0.44081265 -0.49785975
-0.35540953 0.15494834 0.09553875 0.027825875 0.45692605 0.113415174 -0.09105599 0.00019607697
-0.014143327 0.011686274 -0.3016306 -0.5451911 0.34951594 0.08977968 -0.28469008 -0.11364964
0.29593378 0.12146411 -0.08789029 -0.032437064 -0.029172763 -0.07217748 -0.17031111 0.43518627
-0.038697697 -0.12361234 0.24120645 -0.030894067 -0.4351335 -0.15825266 -0.64319426 -0.27656496
0.060391292 0.061358836 -0.30577183 -0.26847675 -0.49405846 -0.0830489 0.14485146 0.11809121
0.04647215 0.20851232 0.20538594 0.33333382 0.11467562 0.27097484 0.47157043 0.041546263
0.079316735 0.20025982 0.06583541 0.18917814 -0.017202426 -0.101521805 -0.053109974 0.4413885
-0.11728464 -0.6453676 -0.02005328 -0.15701573 0.15205258 0.3429567 0.10660304 -0.22957881
-0.53871423 -0.030811034 -0.045123428 0.19773081 0.34703276 -0.038995422 -0.0260118 -0.04907613
0.12956384 0.098336965 -0.18535861 0.09470865 0.02826642 0.014056773 0.14819437 0.40968117
-0.10611129 0.365233 0.28382564 -0.0016298696 -0.10174081 -0.3094032 0.26700872 0.44101524
-0.021089545 0.17318107 -0.07951147 -0.054572757 0.020492192 0.41223702 -0.12665829 0.19855888
-0.1350964 0.458499 0.14036557 0.025211206 0.18452868 -0.15425329 0.027373116 -0.052936457
0.06092285 0.1587974 -0.22707397 0.09335484 -0.29612038 0.12521394 0.0121099455 0.081027344
-0.55062807 -0.03717368 -0.055632334 0.26746938 -0.29581258 -0.009014252 -0.08294038 0.05447064
0.38980976 0.24032591 -0.36465973 0.43763235 -0.14533164 -0.392625 0.050870057 0.5451441
-0.0769081 -0.47720775 -0.03541899 -0.033286586 0.054340947 -0.08610879 0.070663005 0.35150927
0.21140178 -0.0120639345 -0.12254387 0.16146682 0.12768714 0.31970057 0.05768948 -0.39671966
-0.08874378 -0.008269349 -0.28306776 -0.15334402 -0.2341978 0.09931319 0.39920294 -0.40128186
0.28881586 0.01646395 0.20015393 -0.03825103 0.20304465 -0.11414969 0.16208585 0.3494904
0.040225845 0.13427924 -0.1557849 0.28376335 -0.2924258 0.058326878 0.44108343 -0.26993135
00000000: cbc0 b7bd 6bb1 b73b 4a01 ab3d baca 0bbe
00000010: c955 e7bd adc8 993e 4d04 cebc f54d a9be
00000020: 528a febd dad3 02be 188f f63d f9d6 44be
00000030: 4c9e 6cbd 20da ff3d 7296 f9bd d6d0 e53d
00000040: 27f3 9d3e c384 9a3d 1a0d b53e 1c3c 74be
00000050: e9c2 19bb fb14 1cbe 4067 c8bd d6b5 10bc
00000060: 7673 b63e c44f 8c3e 6b5b 7d3e e432 8bbe
00000070: c083 803e 5649 b73d bf56 0c3f 2d01 e83d
00000080: b7ba d6be bed5 a03e 8ca1 8e3d 4388 003f
00000090: e611 443e b356 7fbe 2bf3 b8bd 1aae 793e
000000a0: 608d ae3e 503a 353e 4c71 083e 6299 b93e
000000b0: 3fb1 5ebd 61c2 3b3e da32 e53e 0080 1d3f
000000c0: dd72 48be 7b60 98be 90fa 083e 6040 ec3d
000000d0: d9e8 ddbe c172 c83e 7f14 52bc 723b 18be
000000e0: 5fec a73c d8f5 c33d 2bf1 16bf 1411 f3bd
000000f0: 5259 a7bd f549 1e3e cef9 2d3e 20a2 f8be
00000100: facf 183f eba1 9a3e eb07 9abd 680c 8f3d
00000110: 2c50 fd3d 3385 b03c 8f10 653e cfd1 04bf
00000120: ba68 e73e 4821 9b3e 56de 933d 967c 2fbd
00000130: 3ad2 2bbe c8fa 63be 1dd5 14bd 990e 033f
00000140: db07 5cbc d88e b0bd f61d cebe 88ac a8be
00000150: a07c 543e 74d4 7e3e 32b2 e1be 79e7 febe
00000160: 3df8 b5be c7aa 1e3e d2a9 c33d 17f3 e33c
00000170: 36f2 e93e 3746 e83d 907b babd 039a 4d39
00000180: 6ab9 67bc c977 3f3c 536f 9abe a591 0bbf
00000190: c1f3 b23e 69de b73d e6c2 91be 24c1 e8bd
000001a0: a284 973e 2dc2 f83d d3ff b3bd badc 04bd
000001b0: b8fb eebc c9d1 93bd 0966 2ebe bcd0 de3e
000001c0: 7a81 1ebd 7728 fdbd d3fe 763e 8e15 fdbc
000001d0: d1c9 debe fc0c 22be 61a8 24bf ec99 8dbe
000001e0: dc5c 773d 6753 7b3d 208e 9cbe c975 89be
000001f0: 3bf5 fcbe 8b15 aabd f153 143e ced9 f13d
00000200: 9559 3e3d 4184 553e b150 523e bbaa aa3e
00000210: 0ddb ea3d 37bd 8a3e ae71 f13e 6a2c 2a3d
00000220: d070 a23d e910 4d3e b7d4 863d eab7 413e
00000230: 1aec 8cbc aaea cfbd d889 59bd acfd e13e
00000240: ee32 f0bd d036 25bf c746 a4bc bbc8 20be
00000250: acb3 1b3e 0598 af3e b252 da3d b516 6bbe
00000260: 2de9 09bf 6c67 fcbc 58d3 38bd f279 4a3e
00000270: 47ae b13e aab9 1fbd b316 d5bc 0d04 49bd
00000280: 62ac 043e e464 c93d a6ce 3dbe 9cf6 c13d
00000290: fb8e e73c 614e 663c 44c0 173e bbc1 d13e
000002a0: e050 d9bd d2ff ba3e 9851 913e 59a1 d5ba
000002b0: 7c5d d0bd 196a 9ebe 5eb5 883e c0cc e13e
000002c0: fbc3 acbc 6156 313e e9d6 a2bd af87 5fbd
000002d0: 3edf a73c bb10 d33e b6b2 01be 0553 4b3e
000002e0: b656 0abe 62c0 ea3e febb 0f3e bb87 ce3c
000002f0: 16f5 3c3e 93f4 1dbe 963d e03c e6d3 58bd
00000300: 3d8a 793d c99b 223e 1486 68be d330 bf3d
00000310: 179d 97be 1538 003e cb68 463c aaf1 a53d
00000320: f6f5 0cbf 6e43 18bd bbde 63bd bff1 883e
00000330: bf74 97be 83b0 13bc a5dc a9bd 9b1c 5f3d
00000340: 2595 c73e ff17 763e aeb4 babe 5911 e03e
00000350: d1d1 14be 2506 c9be 1f5d 503d 908e 0b3f
00000360: fe81 9dbd 9354 f4be 8113 11bd 8457 08bd
00000370: 9d94 5e3d ce59 b0bd c4b7 903d 06f9 b33e
00000380: b579 583e cfa7 45bc 48f8 fabd 8f57 253e
00000390: 6bc0 023e cbaf a33e ce4b 6c3d d71e cbbe
000003a0: 4dbf b5bd 2a7c 07bc 42ee 90be 3706 1dbe
000003b0: 8cd1 6fbe b764 cb3d 5464 cc3e d174 cdbe
000003c0: acdf 933e 68df 863c 27f5 4c3e 1dad 1cbd
000003d0: f0ea 4f3e 50c7 e9bd d5f9 253e 68f0 b23e
000003e0: dbc3 243d 7f80 093e 1486 1fbe 6e49 913e
000003f0: d6b8 95be 2ae8 6e3d b0d5 e13e 7134 8abe

network_body._body_endoder.seq_layers.2.bias f4 [128]
-0.0013791238 -0.00039098458 -1.14715924e-10 -0.001058366 -0.0010919087 -5.1302737e-05 -0.00079557806 -0.00019735016
-7.704897e-06 -0.0012848531 -2.5360738e-05 -0.0017910006 -0.0010620911 -0.00094045745 -2.3279465e-07 -0.0022622775
-0.0005935134 -0.0009176897 -0.00046530817 -0.0008244533 -0.00023112925 0.000104284685 -0.0006802899 -0.00020483905
9.84532e-15 -0.0009960596 -0.00055656297 -0.0012202226 -0.00037138042 3.9240305e-05 -0.00088067516 4.2085375e-09
-0.0004129251 -0.0003740146 -0.00022956333 -0.00042434482 -4.1621115e-05 -1.9614536e-06 1.9034363e-07 -0.00027331733
-0.00041704183 -0.0013546539 -0.0012197393 -0.00072923047 -0.00045259797 -0.0004028356 -1.8826123e-10 -0.001064434
0.0006359196 -1.3430567e-21 -0.0001516794 -1.13613705e-05 -0.00070666114 -0.0009324344 -0.001046141 -3.1786635e-07
-0.0017590417 -7.00694e-05 -0.00028579836 3.2785425e-05 -0.00041542004 -0.0013069939 -0.00036985683 -0.0008267802
3.5697867e-05 -0.0007746536 -1.5379838e-14 -0.0009499899 -0.0010144936 7.097995e-05 -0.001485799 0.00016066244
-1.8013745e-05 -0.00080913806 -0.000857051 -0.00028175104 -0.0006561744 -0.00019576807 -0.00028123028 -0.00044416395
-0.0012883173 -0.00078566425 -0.0012364575 -0.0006374812 -0.0009344192 -0.0010601886 -0.0009250873 2.0059758e-08
0.00037225222 -0.00013596483 -0.0007241315 -0.00037849066 -5.359687e-08 -0.0011028311 -1.3842904e-05 -0.00075788796
-0.00034309027 -0.002594246 -0.00028485074 -0.001546357 -0.0010035392 -0.0006301273 -0.0013901631 -0.0015832476
-0.00021424127 -0.00027367997 -0.0014270485 -0.0010448613 -0.001413873 -0.00061765773 -5.936981e-06 -0.00026439995
-0.0004933167 -5.7306926e-13 -0.0012729447 -0.001339705 3.817501e-10 6.7646813e-12 -0.00037286803 -0.0009986272
-0.0009950299 -1.2322968e-14 -1.2598522e-07 -0.00010053763 0.00028410554 -0.00053893315 -0.0003259183 -0.0003622506
00000000: b7c3 b4ba 10fd ccb9 5343 fcae dfb8 8aba
00000010: 601e 8fba e52d 57b8 578e 50ba c8ef 4eb9
00000020: 4844 01b7 8468 a8ba c5bd d4b7 02c0 eaba
00000030: dd35 8bba 0889 76ba 1bf6 79b4 b842 14bb
00000040: 0396 1bba 1d91 70ba 9bf4 f3b9 2020 58ba
00000050: 495b 72b9 6ab3 da38 7b55 32ba 10ca 56b9
00000060: 865b 3128 378e 82ba 4fe6 11ba e0ef 9fba
00000070: d6b5 c2b9 f595 2438 1cdd 66ba b09a 9031
00000080: de7d d8b9 6417 c4b9 f0b6 70b9 997a deb9
00000090: 5592 2eb8 84a1 03b6 4261 4c34 084c 8fb9
000000a0: 68a6 dab9 a48e b1ba a9df 9fba d429 3fba
000000b0: ac4a edb9 ae33 d3b9 d3fe 4eaf 7a84 8bba
000000c0: d8b3 263a fdf4 ca9c 210c 1fb9 b79c 3eb7
000000d0: 3a3f 39ba 9d6e 74ba ab1e 89ba 38a7 aab4
000000e0: a58f e6ba 39f2 92b8 35d7 95b9 1583 0938
000000f0: bccc d9b9 704f abba 58e9 c1b9 48bc 58ba
00000100: 4bba 1538 2012 4bba 7e87 8aa8 be08 79ba
00000110: c2f8 84ba 12db 9438 24bf c2ba 7f77 2839
00000120: 391c 97b7 561c 54ba b8ab 60ba fcb7 93b9
00000130: 1e03 2cba 1747 4db9 1772 93b9 adde e8b9
00000140: c1dc a8ba 09f5 4dba a110 a2ba a41c 27ba
00000150: d0f3 74ba 07f6 8aba 8f81 72ba e04f ac32
00000160: d92a c339 c891 0eb9 a4d3 3dba 2870 c6b9
00000170: 6232 66b3 df8c 90ba d23e 68b7 00ad 46ba
00000180: cce0 b3b9 3a04 2abb 0558 95b9 21af caba
00000190: 3089 83ba 212f 25ba 2236 b6ba f984 cfba
000001a0: f4a5 60b9 b47c 8fb9 cd0b bbba baf3 88ba
000001b0: b551 b9ba 4fea 21ba 4736 c7b6 299f 8ab9
000001c0: ec51 01ba fe4d 21ab f0d8 a6ba 0a99 afba
000001d0: 8dde d12f d502 ee2c 807d c3b9 5ee4 82ba
000001e0: aa6b 82ba a9fd 5da8 8e46 07b4 bbd7 d2b8
000001f0: 00f4 9439 3147 0dba 04e0 aab9 74ec bdb9

network_body._body_endoder.seq_layers.2.weight f4 [128, 128]
-0.018496105 -0.16258067 -0.17070097 0.07571326 -0.02764385 0.084640875 -0.09307064 -0.05265524
-0.10151276 -0.11769357 0.0022186912 -0.06543975 -0.118307106 0.064678274 -0.024492549 -0.10831651
0.08353062 -0.1430001 0.011205138 0.0662254 0.1417824 0.019270636 0.040651716 -0.21460587
-0.02004181 -0.14064434 0.054379243 0.12419502 0.045993317 0.086508185 0.092486516 0.09820294
0.11567089 0.03686787 0.012731293 0.026390024 0.10174005 -0.16324665 0.005378146 0.16018479
0.08438658 -1.9259754e-05 0.065417565 0.0041002226 -0.1418913 -0.023000201 -0.08931033 -0.07496036
-0.30026284 0.04575759 -0.07404118 0.05767157 -0.03722464 0.022968644 0.093646504 -0.048168454
-0.07963687 -0.0033897085 -0.1205789 -0.09571055 0.065543406 0.08223953 0.09589499 0.21218017
0.10496842 0.06456521 -0.0071616415 0.03494379 0.04438583 -0.06351452 -0.09153203 -0.016192243
-0.05780337 0.037678815 0.054745007 0.038323037 0.05337717 0.0039612963 0.11566311 -0.26457372
0.12414297 0.017646452 -0.14445344 -0.03601057 0.12846246 -0.030566452 0.02990356 0.1715742
-0.0340754 0.08826747 -0.0036893624 -0.06229902 -0.07843694 0.16256109 -0.047286917 -0.021870617
-0.04804687 0.09381837 -0.15216267 -0.008635033 -0.17553347 -0.11577479 -0.00036036663 -0.029829208
-0.038575653 -0.03694853 -0.10688005 0.10382646 -0.044055466 0.14813183 0.034772493 0.015929427
-0.010960546 -0.013729835 -0.11047701 -0.11262499 -0.0026505329 0.019454569 0.02696184 -0.029538186
0.06775635 -0.08957013 0.008454398 0.042589825 0.020190379 0.020191884 -0.1507129 0.029711016
-0.14218296 -0.10481966 -0.02555866 -0.064248554 0.02218327 -0.06908811 0.03694516 0.08580697
0.055314247 -0.059020225 -0.04472627 0.023184232 0.010648422 0.031748086 0.11249204 -0.13218933
-0.04369006 -0.100006 0.044419542 -0.04915307 -0.03233357 -0.10488853 -0.0045166076 -0.07654669
-0.019758793 -0.033988345 -0.014105273 -0.06940949 -0.15653157 -0.0639848 -0.064188465 0.11708006
-0.056848835 -0.114696965 -0.0410215 -0.088970035 0.10874597 0.025987089 -0.0034828647 0.025856309
0.07300927 -0.022893185 0.017443826 -0.018674737 -0.0042336495 -0.04858642 0.11831933 -0.048534423
-0.07832008 0.1963743 -0.04510999 0.006401239 -0.07034321 0.012026314 0.12779593 0.16333027
0.05986779 0.025211977 0.05309669 0.02786076 0.040867314 0.013263728 -0.070995204 -0.07109387
0.05534995 -0.0159078 0.06868535 0.018357687 0.0005585905 0.048570465 -0.03150287 -0.07042751
0.15794773 -0.0061960905 0.04794033 0.027960261 0.066333935 0.023810191 -0.09091903 -0.010252485
-0.14850461 0.07385963 -0.0036042752 -0.004057726 0.0059425123 0.1465921 -0.07173058 0.09166219
0.045609932 0.054116283 0.057521842 -0.040690936 0.09222746 0.035488367 -0.07170194 -0.060919475
-0.06928196 0.026186764 0.061435986 -0.01569555 0.10639513 0.083854675 -0.06221243 -0.002320792
-0.014218939 -0.0776241 0.2552003 0.11561671 -0.026582079 0.14151321 -0.16847517 0.008806412
0.021834705 -0.14289415 0.18210678 -0.07311244 0.114972144 0.21346492 -0.04988947 -0.08863733
-0.119205244 -0.03042994 -0.013105017 -0.012445485 -0.034751344 0.02387457 -0.11021563 0.06081866
00000000: 2585 97bc 8c7b 26be 3ccc 2ebe 8e0f 9b3d
00000010: 5b75 e2bc 3258 ad3d d29b bebd 05ad 57bd
00000020: ece5 cfbd 5409 f1bd 7667 113b 4705 86bd
00000030: ff4a f2bd 0b76 843d 99a4 c8bc 0cd5 ddbd
00000040: 1a12 ab3d 9e6e 12be c195 373c 2fa1 873d
00000050: 682f 113e 74dd 9d3c 6a82 263d a4c1 5bbe
00000060: b92e a4bc 1205 10be c5bc 5e3d f559 fe3d
00000070: 7d63 3c3d 342b b13d 9269 bd3d 9f1e c93d
00000080: dce4 ec3d c302 173d ea96 503c e42f d83c
00000090: 165d d03d 212a 27be 293b b03b 7b07 243e
000000a0: dfd2 ac3d 0290 a1b7 a5f9 853d 295b 863b
000000b0: f44b 11be eb6a bcbc 56e8 b6bd d184 99bd
000000c0: 0dbc 99be 506c 3b3d e7a2 97bd 0639 6c3d
000000d0: dd78 18bd bd28 bc3c bdc9 bf3d 494c 45bd
000000e0: a818 a3bd df25 5ebb 12f2 f6bd e503 c4bd
000000f0: 9f3b 863d 336d a83d 9864 c43d c245 593e
00000100: aff9 d63d c43a 843d 34ac eabb 3821 0f3d
00000110: ebcd 353d e713 82bd 2575 bbbd 98a5 84bc
00000120: 3ac3 6cbd 1a55 1a3d 4d3c 603d 9ef8 1c3d
00000130: 05a2 5a3d c3cd 813b c8e0 ec3d 3576 87be
00000140: ab3e fe3d 4b8f 903c 9aeb 13be d27f 13bd
00000150: aa8b 033e 7f66 fabc 50f8 f43c 26b1 2f3e
00000160: a692 0bbd 93c5 b43d 3bc9 71bb 422d 7fbd
00000170: 8ca3 a0bd 6a76 263e edaf 41bd 022a b3bc
00000180: cbcc 44bd d823 c03d 88d0 1bbe f479 0dbc
00000190: 0cbf 33be 551b edbd 97ef bcb9 625c f4bc
000001a0: 8101 1ebd 5757 17bd ede3 dabd f8a2 d43d
000001b0: 8173 34bd dfaf 173e 9a6d 0e3d 6e7e 823c
000001c0: dd93 33bc 1af3 60bc c541 e2bd eea7 e6bd
000001d0: 90b4 2dbb 305f 9f3c 14df dc3c 11fa f1bc
000001e0: d7c3 8a3d 8b70 b7bd 5184 0a3c ab72 2e3d
000001f0: 4b66 a53c 7369 a53c 7c54 1abe 8464 f33c
00000200: 6998 11be b1ab d6bd 6560 d1bc bf94 83bd
00000210: b0b9 b53c 117e 8dbd cf53 173d 91bb af3d
00000220: 3191 623d 31bf 71bd e532 37bd dcec bd3c
00000230: b876 2e3c 480a 023d 3a62 e63d a45c 07be
00000240: 59f4 32bd f2cf ccbd 44f1 353d bb54 49bd
00000250: 3570 04bd cccf d6bd 0d00 94bb 83c4 9cbd
00000260: 31dd a1bc 5d37 0bbd ce19 67bc 9026 8ebd
00000270: d049 20be 760a 83bd 3e75 83bd acc7 ef3d
00000280: 53da 68bd 3ee6 eabd 2906 28bd ec35 b6bd
00000290: 35b6 de3d e0e2 d43c c640 64bb 9cd0 d33c
000002a0: e285 953d 7d8a bbbc 5be6 8e3c c3fb 98bc
000002b0: 6dba 8abb 8e02 47bd 6851 f23d 08cc 46bd
000002c0: 4766 a0bd 5816 493e 41c5 38bd 7cc1 d13b
000002d0: 1a10 90bd 040a 453c f0dc 023e 0d40 273e
000002e0: ee37 753d 5989 ce3c ea7b 593d 403c e43c
000002f0: 7c64 273d 1b50 593c ef65 91bd aa99 91bd
00000300: a1b6 623d 1351 82bc e8aa 8c3d dc62 963c
00000310: 606e 123a d3f1 463d 2709 01bd 4c3c 90bd
00000320: 0dbd 213e 9308 cbbb 145d 443d eb0c e53c
00000330: 16da 873d 970d c33c c233 babd 0afa 27bc
00000340: 9811 18be b843 973d b435 6cbb acf6 84bb
00000350: 68b9 c23b 3d1c 163e 7be7 92bd 63b9 bb3d
00000360: 7bd1 3a3d 09a9 5d3d 069c 6b3d 8aab 26bd
00000370: c0e1 bc3d 405c 113d 77d8 92bd b386 79bd
00000380: b3e3 8dbd a085 d63c 4da4 7b3d f493 80bc
00000390: b1e5 d93d 00bc ab3d 76d2 7ebd 6e18 18bb
000003a0: 8df6 68bc 62f9 9ebd 9da9 823e 74c8 ec3d
000003b0: a9c2 d9bc d7e8 103e c184 2cbe c548 103c
000003c0: b2de b23c d852 12be 337a 3a3e fabb 95bd
000003d0: 8476 eb3d 8c96 5a3e e758 4cbd 7d87 b5bd
000003e0: e121 f4bd 3648 f9bc 6db6 56bc 26e8 4bbc
000003f0: 6d57 0ebd 9a94 c33c bbb8 e1bd fd1c 793d
