Shooting Range/Assets/Models/AI_shooter_manager.onnx (onnx, 86286 bytes, 8 tensors)

action_model._continuous_distribution.log_sigma f4 [1, 14]
4.117672 4.1076703 4.100408 4.1074495 4.0322976 4.1031733 4.1243076 4.102969
4.1383605 4.10796 4.100759 4.100472 4.0969152 4.120653
00000000: f8c3 8340 0972 8340 8b36 8340 3a70 8340
00000010: 9508 8140 324d 8340 54fa 8340 864b 8340
00000020: 736d 8440 6974 8340 6b39 8340 1137 8340
00000030: ee19 8340 64dc 8340

action_model._continuous_distribution.mu.bias f4 [14]
-0.011098213 -0.011065001 -0.03483989 0.023744226 0.021867326 0.011611079 -0.015064492 -0.0023303283
-0.028751997 -0.014276808 -0.005790334 -0.012192581 -0.02938984 0.031915434
00000000: 47d5 35bc fa49 35bc 46b4 0ebd 4083 c23c
00000010: 1b23 b33c 653c 3e3c 0fd1 76bc 6cb8 18bb
00000020: 4f89 ebbc 46e9 69bc d8bc bdbb 64c3 47bc
00000030: f6c2 f0bc c2b9 023d

action_model._continuous_distribution.mu.weight f4 [14, 128]
-0.040810876 0.0066161864 -0.007168132 -0.0003303493 -0.04337382 0.013753702 -0.023332607 0.0009846723
0.010620885 -0.004352654 0.009582537 0.013876909 0.025325418 0.01790305 -0.00037486543 0.0044883653
-0.008652606 0.009527886 -0.013163251 0.009232914 0.0011291973 0.016346632 0.007616261 0.014563313
-0.0044909595 0.014846374 -0.050460566 0.010412319 -0.018370358 0.024320912 0.009321507 0.009403047
0.005562861 0.011874554 0.03355012 -0.01422671 0.010467912 -0.0018327817 0.022936169 0.01866413
0.007647086 0.029562453 0.0057047983 -0.013266563 -0.0035103504 -0.021049699 0.03897416 -0.013919416
0.0039117956 -0.0006859053 -0.02796259 -0.020179207 -0.04162221 0.005908449 -0.00033769087 -0.0052435887
0.011337511 -0.016603068 0.00053303584 -0.06651489 0.038545776 -0.012579717 0.009891559 -0.0051461044
-0.0035763117 0.01808131 -0.03863337 0.00088241714 0.04299667 0.009590235 0.004309699 0.015803808
0.004451463 0.023649696 0.0072788056 -0.019571465 0.03200723 -0.00436866 0.010855421 -0.030290533
0.0025074526 -0.016799297 0.017282706 0.001461471 -0.04188553 -0.00025863104 -0.0050484682 0.002742709
-0.021085193 -0.028184392 -0.0060038106 -0.06373545 0.017064817 0.01334136 -0.0035952488 -0.02613764
-0.0021944372 0.009552866 0.024563452 -0.0016177588 -0.0029331772 -0.038045034 0.030759163 0.028146202
0.0013666474 -0.020959534 -0.011807494 -0.008661833 -0.014355113 0.014877202 0.018691896 0.014864912
0.012104966 -0.02213102 -0.021281026 0.019768467 0.0071028545 -0.0033935849 0.0046216184 0.00028823048
-0.02340143 -0.0026770784 0.022890108 0.032379277 0.040177178 -0.021972256 0.007225385 -0.018010998
-0.02100874 0.039847493 -0.022615172 0.010448115 -0.01181432 0.006698905 -0.025263865 -0.013064175
0.014275419 -0.00361297 0.027489498 -0.024187826 0.011652841 0.008650416 0.011693504 0.006334982
-0.028851328 0.009316644 0.023315446 -0.020628052 0.021716958 -0.041788504 0.010684116 0.00046416055
0.0076753055 0.013162036 -0.026694056 -0.006294951 -0.0015311099 -0.006618831 -0.00057299656 -0.015400392
0.010518543 -0.033155642 0.016511394 0.060208496 0.013673754 -0.008999303 -0.02491115 0.0044919313
-0.009198214 -0.00034974286 0.009659825 0.006876296 0.005561129 0.01571528 0.002152619 0.0031675482
-0.025251025 -0.0063041756 -0.025889348 -0.0064552934 -0.008005392 0.0013867284 -0.021639237 0.03273563
0.013053948 0.021810476 0.007198526 -0.026760763 0.0041451473 0.015885733 0.024325006 -0.034487437
0.001644075 -0.04428973 0.011300089 -0.00067058514 -0.003778929 -0.00044693056 0.022183435 -0.0379224
-0.011399956 -0.0081653055 -0.004249087 -0.00044053994 0.02801316 0.009351592 -0.017143594 -0.020465462
-0.0026835145 -0.017722132 -0.013949752 0.00877906 -0.04645777 0.0032237533 -0.0030514952 0.0178327
0.00059630175 -0.018630821 0.0065552476 -0.037641704 0.0051149693 -0.0060579176 -0.019327901 0.011282279
0.011918809 -0.021091519 -0.009860232 0.021170747 0.015732152 -0.016739741 0.014873119 0.038810037
0.016894756 0.050266482 -0.043901276 0.017498031 -0.02030048 0.0103805605 -0.013536434 0.01722844
-0.025366606 0.012745613 0.015542957 0.012845214 0.031690143 0.023207335 -0.008443619 -0.0026121486
-0.0031506077 0.015743889 0.009739978 0.0016128758 -0.026013939 -0.0038022003 0.049677186 -0.011409873
00000000: 4e29 27bd 98cc d83b a6e2 eabb bc32 adb9
00000010: bfa8 31bd 3557 613c 0624 bfbc 1f10 813a
00000020: 3803 2e3c b5a0 8ebb 1300 1d3c fa5b 633c
00000030: 4077 cf3c 6ba9 923c 9689 c4b9 2313 933b
00000040: a9c3 0dbc da1a 1c3c adaa 57bc a645 173c
00000050: 9301 943a 5fe9 853c d491 f93b f69a 6e3c
00000060: e628 93bb 353e 733c bdaf 4ebd 6e98 2a3c
00000070: 6f7d 96bc a63c c73c 3cb9 183c 3d0f 1a3c
00000080: a948 b63b 7d8d 423c da6b 093d 2617 69bc
00000090: 9b81 2b3c f339 f0ba a2e4 bb3c 84e5 983c
000000a0: 6894 fa3b f52c f23c 51ef ba3b 005c 59bc
000000b0: e80d 66bb 6b70 acbc 5ea3 1f3d 430e 64bc
000000c0: 852e 803b 53ce 33ba cd11 e5bc dd4e a5bc
000000d0: 0d7c 2abd aa9b c13b 1a0c b1b9 69d2 abbb
000000e0: f8c0 393c 2803 88bc 6ebb 0b3a f538 88bd
000000f0: 2de2 1d3d 281b 4ebc 3510 223c a7a0 a8bb
00000100: 8e60 6abb 411f 943c 063e 1ebd 0352 673a
00000110: 471d 303d 5c20 1d3c 6038 8d3b fd76 813c
00000120: 94dd 913b 02bd c13c 0c83 ee3b 5654 a0bc
00000130: 031a 033d fa26 8fbb f0da 313c da23 f8bc
00000140: 1354 243b ae9e 89bc 7694 8d3c d48e bf3a
00000150: 2990 2bbd df98 87b9 9f6d a5bb 05bf 333b
00000160: dbba acbc f4e2 e6bc 9dbb c4bb bb87 82bd
00000170: 84cb 8b3c b895 5a3c 449e 6bbb 9b1e d6bc
00000180: 8cd0 0fbb a083 1c3c 4b39 c93c fa0a d4ba
00000190: 8c3a 40bb 1cd5 1bbd a4fa fb3c dd92 e63c
000001a0: 1421 b33a 54b3 abbc 3874 41bc 5cea 0dbc
000001b0: b531 6bbc 82bf 733c bf1f 993c f68b 733c
000001c0: e853 463c 1d4c b5bc 8c55 aebc 7bf1 a13c
000001d0: 10bf e83b e866 5ebb f270 973b a41d 9739
000001e0: 5bb4 bfbc ec71 2fbb 0984 bb3c 22a0 043d
000001f0: d390 243d 29ff b3bc ecc2 ec3b cd8b 93bc
00000200: 851a acbc 2037 233d 7443 b9bc 922e 2b3c
00000210: da90 41bc 7d82 db3b 2af6 cebc 1f0b 56bc
00000220: 72e3 693c 94c7 6cbb a831 e13c 8c25 c6bc
00000230: 8feb 3e3c 79ba 0d3c 1c96 3f3c ae95 cf3b
00000240: 9f59 ecbc d6a4 183c 0900 bf3c 29fc a8bc
00000250: c3e7 b13c 6c2a 2bbd 6e0c 2f3c 935a f339
00000260: 2181 fb3b 95a5 573c 7ead dabc e045 cebb
00000270: 86af c8ba c7e2 d8bb 2635 16ba ed51 7cbc
00000280: f855 2c3c 36ce 07bd e742 873c 2f9d 763d
00000290: e207 603c d071 13bc 7812 ccbc 0d31 933b
000002a0: 1bb4 16bc b15d b7b9 3e44 1e3c 8d52 e13b
000002b0: 223a b63b 55bd 803c f412 0d3b a496 4f3b
000002c0: 3ddb cebc 4293 cebb e615 d4bc ed86 d3bb
000002d0: 0c29 03bc e2c2 b53a c544 b1bc cc15 063d
000002e0: 3ae0 553c e2ab b23c 9de1 eb3b 6339 dbbc
000002f0: 04d4 873b cc22 823c 3c45 c73c b342 0dbd
00000300: 017e d73a 2669 35bd 0224 393c 35ca 2fba
00000310: e8a7 77bb 0152 eab9 09ba b53c 8554 1bbd
00000320: e2c6 3abc c6c7 05bc ed3b 8bbb 45f8 e6b9
00000330: db7b e53c 6b37 193c b970 8cbc 2fa7 a7bc
00000340: e7dd 2fbb 012e 91bc 808d 64bc 0cd6 0f3c
00000350: 814a 3ebd 9b45 533b 98fb 47bb e215 923c
00000360: 2251 1c3a aa9f 98bc 67cd d63b 302e 1abd
00000370: 799b a73b 7f81 c6bb 8c55 9ebc 4fd9 383c
00000380: 1c47 433c 1fc8 acbc cf8c 21bc 466e ad3c
00000390: b7e0 803c c821 89bc 62ae 733c 46f7 1e3d
000003a0: df66 8a3c 3ae4 4d3d d3d1 33bd 0858 8f3c
000003b0: 314d a6bc 3a13 2a3c ebc7 5dbc a822 8d3c
000003c0: a1cd cfbc fad2 503c e3a7 7e3c bc74 523c
000003d0: 86cd 013d 4f1d be3c 1b57 0abc 9530 2bbb
000003e0: 6d7a 4ebb 54f9 803c 6e94 1f3c 2267 d33a
000003f0: 2f1b d5bc 562e 79bb 4e7a 4b3d 7af0 3abc

action_model._discrete_distribution.branches.0.weight f4 [1, 128]
-0.009043136 0.0042679133 0.0110764755 -0.012578428 0.0057881875 -0.007067915 -0.013422203 -0.0035014302
0.0020387275 -0.0029081781 0.00704413 0.011911626 -0.009757844 0.00051446044 0.0018986076 -0.00684382
0.006357667 0.00094809255 -0.016431885 0.007117398 0.011452058 -0.0087002395 -8.963182e-06 0.003077485
-0.015327145 0.005065748 0.0004883477 0.008126696 -0.0010917045 -0.0032785616 -0.01509503 -0.012622743
-4.839485e-05 -0.0034160793 -0.0005935057 0.0052525457 -0.0010901351 -0.0024275307 -0.0048047616 -0.014946617
-0.0027350707 0.0007550781 -0.001216076 0.002542718 -0.009771223 -0.0008712059 0.0031999347 0.00526962
0.0013086488 -0.004723736 0.0048330133 -0.00873388 -0.002058906 -0.00648833 -0.0074803554 -0.00027604465
-0.007662126 -0.0027851134 0.007426616 -0.0055226823 0.00071924523 0.009588753 -0.0032934267 -0.0049201525
0.024870982 -0.00760751 -0.005126561 -0.0026254486 -0.014857093 -0.008897072 0.0085575245 -0.012638017
-0.015397166 -0.005429085 -0.0012186341 6.862188e-05 -0.01310311 -0.0029061425 -0.008775405 -0.0060156286
-0.003701105 0.0021212464 0.011997309 0.01504455 -0.0019208629 -0.0075191082 0.0032262136 0.0062041283
-0.0010633295 0.004423974 -0.0047216243 0.005009095 0.015336494 -0.007165597 0.0049786563 0.007965114
0.009232956 -0.0030998646 -0.009523989 -0.02140205 0.012299583 -0.011891273 0.0064519607 0.012676435
0.01425524 0.002989616 0.0011693425 -0.017544422 -0.00289737 0.006863352 -0.01944205 0.011837752
0.0036512457 0.012638064 0.0016602771 0.00773132 -0.003105406 -0.0046545668 0.00876203 0.007935525
-0.0071365233 0.008519453 -0.015005039 -0.027538924 -0.0017918186 0.012061004 -0.0031256366 2.3594695e-05
00000000: a929 14bc dad9 8b3b 1b7a 353c c015 4ebc
00000010: d6aa bd3b f899 e7bb cde8 5bbc 4078 65bb
00000020: 2c9c 053b 2297 3ebb 72d2 e63b fb28 433c
00000030: 5ddf 1fbc dbdc 063a b3da f83a 2042 e0bb
00000040: fa53 d03b 6a89 783a 299c 86bc 1039 e93b
00000050: 6aa1 3b3c 738b 0ebc 9360 16b7 a1af 493b
00000060: b51e 7bbc 93fe a53b 7604 003a d525 053c
00000070: 8617 8fba 23dd 56bb 2551 77bc 9fcf 4ebc
00000080: 93fb 4ab8 4de0 5fbb 7e95 1bba 8c1d ac3b
00000090: dde2 8eba 3517 1fbb 4371 9dbb a8e2 74bc
000000a0: df3e 33bb 6ff0 453a bd64 9fba bba3 263b
000000b0: 7b17 20bc a361 64ba ffb5 513b c7ac ac3b
000000c0: f886 ab3a 92c9 9abb 415e 9e3b 8c18 0fbc
000000d0: b6ee 06bb 0f9c d4bb c51d f5bb 16ba 90b9
000000e0: 9212 fbbb 7386 36bb f85a f33b 9ef7 b4bb
000000f0: bb8b 3c3a 251a 1d3c 88d6 57bb 3b39 a1bb
00000100: 3bbe cb3c 6b48 f9bb b6fc a7bb b80f 2cbb
00000110: 2a6b 73bc 06c5 11bc dc34 0c3c af0f 4fbc
00000120: 6544 7cbc 77e6 b1bb 93ba 9fba 17e9 8f38
00000130: 6dae 56bc fb74 3ebb b7c6 0fbc c01e c5bb
00000140: 3d8e 72bb 9c04 0b3b 5c90 443c 6b7d 763c
00000150: 77c5 fbba da62 f6bb e26e 533b 004c cb3b
00000160: 6b5f 8bba fcf6 903b dbb7 9abb 5623 a43b
00000170: eb45 7b3c 62cd eabb ff23 a33b 1c80 023c
00000180: d345 173c 1927 4bbb 810a 1cbc 5a53 afbc
00000190: 3184 493c 9dd3 42bc f86a d33b d2b0 4f3c
000001a0: cf8e 693c 6fed 433b a044 993a 52b9 8fbc
000001b0: cde1 3dbb f8e5 e03b ef44 9fbc 21f3 413c
000001c0: bd49 6f3b e20f 4f3c a89d d93a 0357 fd3b
000001d0: 1184 4bbb 5685 98bb 9e8e 0f3c 0104 023c
000001e0: 7fd9 e9bb 2d95 0b3c b2d7 75bc 4f99 e1bc
000001f0: 75db eaba 849b 453c 7bd7 4cbb 39ed c537

network_body._body_endoder.seq_layers.0.bias f4 [128]
0.0022640617 5.3501438e-08 0.020434972 -0.0014989527 0.009100275 -9.986042e-25 -0.045116786 -0.013385387
2.671887e-15 -0.0065426757 -1.7601273e-13 0.0051562004 0.005655069 0.007599362 -0.0049882825 -0.014312914
-0.0056790314 7.095758e-06 7.7549305e-07 -0.02136391 -0.019586246 -0.024501676 -0.023598654 4.776105e-07
0.012350293 -0.00016677806 -0.0046007223 -0.008779881 -0.011970733 -0.001226334 0.008097337 -0.013899118
-0.004572765 0.0002486043 0.024071665 -1.875681e-08 -0.014190012 -0.021115318 -0.018636474 -0.054766912
-1.5915201e-10 0.023728581 -1.8069071e-10 -5.713928e-15 -0.01754805 -0.0071468093 -0.045763906 -0.012442316
-6.5548863e-07 1.4417115e-10 -0.011524113 -8.1136624e-18 9.290442e-06 -0.02118963 -0.015661592 -0.023632506
2.2066941e-10 -8.162761e-06 -0.015602614 -2.8176382e-28 -0.021644836 1.6490219e-11 -3.9476447e-07 -0.006951969
0.015630057 0.0149667105 0.009638932 0.0060267798 -0.0126543585 -0.027394885 4.054602e-06 -1.28146445e-08
-0.015788147 -0.008122137 -0.0012845175 0.005759369 -0.044500522 -0.027477255 -0.014285698 1.3155281e-21
-0.01823143 -0.020692509 5.734632e-06 1.082433e-22 0.018650403 -0.031449318 0.0030683547 -0.018065229
-2.5591827e-16 0.0077623734 -0.028195923 -0.029600447 -0.008794826 -0.00201197 -0.012450048 -2.2062812e-18
0.04088293 0.004147738 0.014872226 8.626028e-06 -0.012690807 -0.020672092 1.0350485e-18 -5.1749594e-05
0.005666634 -0.016943492 -0.013953317 -0.015428887 2.270132e-15 0.014122361 -0.0046110936 -0.034749314
-1.0161704e-05 -0.00030390406 -7.169072e-08 3.3930215e-15 -2.190169e-09 -0.0009480032 -0.0026749703 -0.025799615
0.0019870966 -0.026573956 -0.0030694231 0.0038199443 -0.019714188 3.13994e-11 5.923675e-15 -0.0014880177
00000000: a760 143b 74c9 6533 3e67 a73c 8278 c4ba
00000010: 5219 153c ca86 9a97 61cc 38bd 624e 5bbc
00000020: 9e87 4027 f163 d6bb 372c 46aa 58f5 a83b
00000030: 284e b93b 1204 f93b bf74 a3bb b680 6abc
00000040: 2b17 babb 1918 ee36 7a2b 5035 5e03 afbc
00000050: 5673 a0bc bdb7 c8bc f751 c1bc 2535 0035
00000060: e258 4a3c 25e1 2eb9 a8c1 96bb 7dd9 0fbc
00000070: e520 44bc f1bc a0ba b1aa 043c 20b9 63bc
00000080: 22d7 95bb 1b57 8239 f131 c53c a91e a1b2
00000090: 397d 68bc 08fa acbc 85ab 98bc 4553 60bd
000000a0: 4ffd 2eaf 7162 c23c eaab 46af afdd cda7
000000b0: eec0 8fbc c82f eabb ef72 3bbd dbda 4bbc
000000c0: d6f4 2fb5 9284 1e2f a2cf 3cbc b0ab 15a3
000000d0: 25de 1b37 e095 adbc bd4c 80bc f598 c1bc
000000e0: eba0 722f cbf2 08b7 1ba2 7fbc cb96 b291
000000f0: 8350 b1bc ac0c 912d 04f0 d3b4 58cd e3bb
00000100: 9b0a 803c ef36 753c 9cec 1d3c 4b7c c53b
00000110: 3a54 4fbc 3d6b e0bc c40c 8836 6727 5cb2
00000120: 2556 81bc b612 05bc 415d a8ba 17b9 bc3b
00000130: 2e46 36bd fb17 e1bc 8f0e 6abc 07cc c61c
00000140: 145a 95bc 5683 a9bc 1d6c c036 aedb 021b
00000150: bbc8 983c 00d1 00bd 7316 493b 88fd 93bc
00000160: df86 93a5 825b fe3b 23fb e6bc a37c f2bc
00000170: 2d18 10bc 41db 03bb 49fb 4bbc 79cb 22a2
00000180: dc74 273d c0e9 873b a3aa 733c 82b8 1037
00000190: 1aed 4fbc 8558 a9bc 07bf 9821 b40d 59b8
000001a0: 2caf b93b 14cd 8abc 749c 64bc 71c9 7cbc
000001b0: 8b94 2327 7a61 673c a818 97bb 4c55 0ebd
000001c0: 307c 2ab7 5055 9fb9 64f4 99b3 337e 7427
000001d0: dc81 16b1 6b83 78ba 8e4e 2fbb b759 d3bc
000001e0: f339 023b a0b1 d9bc 6028 49bb 0858 7a3b
000001f0: a67f a1bc 9518 0a2e 426c d527 9709 c3ba

network_body._body_endoder.seq_layers.0.weight f4 [128, 17]
0.030196987 -0.20567626 -0.12932108 0.07440943 0.12842323 -0.2124829 -0.42507094 0.08334509
-0.33666778 -0.12891515 0.30072758 -0.0037547208 0.36676058 0.16503589 -0.13776276 0.15207115
0.28122285 -0.110660575 0.35120046 -0.45095816 0.13431735 -0.41852388 0.06908237 0.17767796
0.29928824 0.12095569 0.1555697 0.14959821 -0.23366882 0.20334516 -0.04908519 0.192263
-0.060368523 -0.16364785 -0.2165369 -0.111976154 -0.058665734 -0.34872705 -0.08381041 0.1518361
0.1930522 0.059459392 0.28164387 0.17251585 -0.029961085 -0.11133974 0.2965388 0.021760842
0.07131567 -0.31379724 0.05218286 0.3921329 0.44175512 0.31759477 0.26481912 -0.13747202
-0.3953466 -0.020029439 -0.4555646 0.40810025 -0.12891592 0.6441662 0.5419043 -0.06585081
0.0021021145 0.4769197 -0.32161105 -0.005852205 0.009184949 -0.13420844 0.30516055 0.18421537
0.072875336 -0.28461766 -0.029689234 0.11720215 0.121585384 0.28256264 -0.42664564 0.20026046
-0.25015375 0.025163889 0.21202217 0.3224515 0.28226227 -0.22434123 -0.046659306 0.0022963937
0.08981881 -0.081640914 0.28239578 -0.27779806 -0.015905583 -0.19922858 -0.11303373 0.0868572
-0.04469436 -0.16582283 -0.35580525 -0.042867947 -0.028845793 -0.56061226 0.08206804 0.16114214
0.15316662 -0.028056081 0.023966538 -0.38040987 -0.17808546 0.13293579 -0.48659068 -0.23404892
0.23443657 -0.11496286 -0.14511065 0.056622 -0.07218501 -0.1734675 0.082182094 0.3883361
-0.0336509 -0.3301402 0.3455968 0.1798232 0.117270835 -0.30368328 0.17510217 -0.042778775
0.09977754 -0.0065620197 -0.05574184 0.08541664 -0.052169293 -0.3837545 0.44543028 0.264689
0.69537836 -0.28608784 -0.13250491 0.28244045 -0.46385384 -0.084459305 0.25189802 0.1943681
-0.14155322 0.10392101 0.0043350835 -0.28290057 0.64519984 -0.61515176 -0.091043405 0.2673166
-0.37250113 -0.22609724 -0.18842548 0.17632928 0.5195921 0.114002176 0.5387957 -0.008297444
0.25942242 -0.08406557 -0.16242172 -0.029727507 -0.3296856 -0.011939131 -0.11688104 0.19266605
-0.3547949 -0.04834288 0.07444411 0.18164982 0.13489516 -0.27008384 -0.2196262 0.23899584
-0.16441087 -0.33224282 -0.08006326 0.26219153 -0.043144267 0.14216322 -0.01020121 0.03134734
0.08883572 0.17934611 -0.2755237 -0.107099354 0.003977406 -0.02534214 0.16208212 0.026709473
0.27495456 -0.46802664 -0.06499048 -0.38669625 0.114002995 0.07990179 0.23706527 0.07611544
-0.04274198 0.07559583 -0.10985799 0.07207896 0.0014728217 0.13120554 0.29999104 -0.174849
0.31562158 -0.24035877 0.02319808 0.12806047 0.13440174 0.04722697 0.2304299 -0.2632643
-0.1914959 -0.025972549 -0.1864138 0.0692244 0.026321243 0.09735756 -0.03941895 0.30844602
-0.016899372 -0.12131217 -0.05767427 0.108519495 0.07802179 -0.67628795 0.17272583 -0.2150932
-0.029532498 0.6141052 -0.24884996 0.24504012 -0.025635783 0.31234226 0.2964586 0.045481972
-0.27569267 -0.3170358 0.1739482 0.46876457 -0.19940953 0.13249949 0.28928098 0.07074912
0.16866088 -0.043166514 0.48994282 -0.06694309 -0.2649908 -0.18234326 0.10294413 0.39779449
00000000: ac5f f73c cc9c 52be bf6c 04be f963 983d
00000010: 6181 033e 1e95 59be e6a2 d9be d5b0 aa3d
00000020: b85f acbe 5502 04be f7f8 993e c311 76bb
00000030: 0bc8 bb3e 2bff 283e ae11 0dbe 8ab8 1b3e
00000040: 71fc 8f3e 03a2 e2bd 8cd0 b33e fde3 e6be
00000050: 7d8a 093e c348 d6be 0f7b 8d3d 36f1 353e
00000060: 4f3c 993e 9eb7 f73d aa4d 1f3e 4630 193e
00000070: e146 6fbe b739 503e 8d0d 49bd 98e0 443e
00000080: fc44 77bd 4d93 27be d9bb 5dbe c153 e5bd
00000090: 7b4b 70bd 5a8c b2be cba4 abbd ec7a 1b3e
000000a0: 7aaf 453e b18b 733d a033 903e ffa7 303e
000000b0: f370 f5bc 1706 e4bd efd3 973e cb43 b23c
000000c0: f30d 923d 08aa a0be b2bd 553d a5c5 c83e
000000d0: ba2d e23e c89b a23e 5f96 873e 77c5 0cbe
000000e0: df6a cabe c714 a4bc c33f e9be 84f2 d03e
000000f0: 8902 04be 13e8 243f 3dba 0a3f cadc 86bd
00000100: a1c3 093b d22e f43e 34aa a4be dbc3 bfbb
00000110: 787c 163c f06d 09be 013e 9c3e f4a2 3c3e
00000120: aa3f 953d 68b9 91be d636 f3bc ae07 f03d
00000130: c201 f93d 0dac 903e 4c71 dabe 1411 4d3e
00000140: 2714 80be 8024 ce3c 571c 593e 5d18 a53e
00000150: ae84 903e b5b9 65be d41d 3fbd 187f 163b
00000160: edf2 b73d 5a33 a7bd 2e96 903e 8c3b 8ebe
00000170: 6d4c 82bc 9402 4cbe 3a7e e7bd 30e2 b13d
00000180: 6f11 37bd 76cd 29be 1b2c b6be 4d96 2fbd
00000190: 034e ecbc 4984 0fbf 4a13 a83d 7202 253e
000001a0: b6d7 1c3e ded5 e5bc 7955 c43c 15c5 c2be
000001b0: 095c 36be 5220 083e 6a22 f9be 85aa 6fbe
000001c0: 2410 703e a671 ebbd e397 14be 78ec 673d
000001d0: bcd5 93bd 77a1 31be 164f a83d fdd3 c63e
000001e0: 87d5 09bd 2308 a9be 10f2 b03e 9323 383e
000001f0: b12b f03d 607c 9bbe fc4d 333e cc38 2fbd
00000200: 2b58 cc3d 3606 d7bb 8e51 64bd ebee ae3d
00000210: 78af 55bd 787b c4be 700f e43e 5185 873e
00000220: 5104 323f 1b7a 92be 5eaf 07be 099c 903e
00000230: 407e edbe 00f9 acbd c7f8 803e 6e08 473e
00000240: 54f3 10be 8ad4 d43d 510d 8e3b 58d8 90be
00000250: d12b 253f 967a 1dbf f774 babd b9dd 883e
00000260: 78b8 bebe 0986 67be 9cf2 40be aa8f 343e
00000270: fd03 053f f979 e93d 84ee 093f 01f2 07bc
00000280: 04d3 843e 922a acbd e151 26be 1a87 f3bc
00000290: 8dcc a8be 589c 43bc 545f efbd 404a 453e
000002a0: ada7 b5be 2f03 46bd 2776 983d 6902 3a3e
000002b0: f521 0a3e 6e48 8abe b1e5 60be 53bb 743e
000002c0: 535b 28be bb1b aabe 35f8 a3bd f83d 863e
000002d0: 0bb8 30bd 3c93 113e fa22 27bc 1266 003d
000002e0: 81ef b53d 82a6 373e 7111 8dbe e856 dbbd
000002f0: e654 823b 529a cfbc dbf8 253e d3cd da3c
00000300: d8c6 8c3e 30a1 efbe bb19 85bd 0dfd c5be
00000310: 677a e93d 8da3 a33d 3dc1 723e 69e2 9b3d
00000320: 3712 2fbd fdd1 9a3d 3afd e0bd 229e 933d
00000330: b20b c13a bf5a 063e 6d98 993e 9e0b 33be
00000340: 2799 a13e 9c20 76be e609 be3c 4922 033e
00000350: 9ca0 093e 1171 413d d1f5 6b3e 94ca 86be
00000360: 8017 44be 62c4 d4bc 42e3 3ebe 86c5 8d3d
00000370: a69f d73c 6763 c73d c475 21bd a3ec 9d3e
00000380: 8d70 8abc 8472 f8bd db3b 6cbd 783f de3d
00000390: e3c9 9f3d 3521 2dbf 0adf 303e 6441 5cbe
000003a0: 23ee f1bc 0036 1d3f 86d2 7ebe cceb 7a3e
000003b0: 2202 d2bc 53eb 9f3e 6cc9 973e 4e4b 3a3d
000003c0: 9727 8dbe 8452 a2be 7a1f 323e e901 f03e
000003d0: 0332 4cbe f2ad 073e a31c 943e eae4 903d
000003e0: 70b5 2c3e 5fcf 30bd c9d9 fa3e 7519 89bd
000003f0: e0ac 87be 31b8 3abe 5fd4 d23d b8ab cb3e

network_body._body_endoder.seq_layers.2.bias f4 [128]
-0.0028830557 -0.018572755 -0.0033926913 -0.00016839254 0.013088054 -0.016737696 -0.0038215176 0.021127904
-0.012952823 -6.6331544e-05 -0.00039007523 -0.022297524 -2.4187891e-12 -0.020156063 -0.004334159 -0.0019010542
-5.5376902e-05 0.016024 -0.0073923385 1.4884618e-12 -0.0014439892 -0.014886245 -0.0138996495 0.0039585214
-0.0023205597 -0.0022765645 0.01201994 -0.0051504495 -0.017549116 -5.8328405e-05 -0.0020685946 -4.4779076e-06
-0.008653457 -0.0025852863 -0.0039163604 -0.006237449 -0.0060647633 -0.015976883 -0.0019362442 -2.5450103e-05
0.0052065603 -0.0020400004 -1.0712744e-05 7.2331646e-10 -0.0021544455 -0.013962707 0.025677271 -0.009851253
-0.0055580484 -0.007278676 -0.01544492 -0.004350781 -0.00010815413 0.011472475 -0.025864359 1.0809605e-07
-0.0043684375 -8.682307e-09 -0.004787892 0.025286907 0.014477814 -0.004091534 0.004254769 -0.007046678
-0.007862845 -0.0070163067 -0.0022618528 -5.886832e-06 -0.014206525 -0.0065285894 -0.004175163 -0.012621267
-0.02281583 -2.0753512e-05 -0.0069513973 -0.0013160106 6.159646e-07 -0.02497964 -0.0065819407 0.02760797
-0.0023457368 -0.006992727 -4.310361e-08 -0.0071773212 0.014818594 -1.01592124e-10 -0.0024085026 0.00039064485
-0.0029218136 0.011299085 -0.004138988 0.036674667 -0.00018262664 -4.995793e-05 -0.004560592 -0.0073986463
-0.0144224875 -0.008204084 0.00032212603 -0.0002790742 -0.0074561643 -0.0023489154 0.005268976 -3.3102489e-19
-0.02383655 0.007841526 1.7674522e-11 -0.0053036106 0.01573212 -0.00019188487 -0.014256225 -3.498845e-08
0.0038221837 -2.950652e-08 -0.02090091 -0.011604782 -0.008286228 -0.0067890133 -0.004097979 -0.013968263
0.007728601 -0.0059598917 0.0031983317 0.00047539972 -0.014209218 0.02904243 2.0851147e-09 -0.0008279284
00000000: a6f1 3cbb e425 98bc ea57 5ebb 8792 30b9
00000010: 476f 563c 7e1d 89bc 6d72 7abb 6d14 ad3c
00000020: 1438 54bc 7a1b 8bb8 0383 ccb9 4ca9 b6bc
00000030: 0835 2aac 541e a5bc 9005 8ebb cb2c f9ba
00000040: 7f44 68b8 c344 833c 6e3b f2bb 7d7b d12b
00000050: 3d44 bdba 70e5 73bc 5bbb 63bc 7cb6 813b
00000060: 8814 18bb 6a32 15bb 48ef 443c 1ac5 a8bb
00000070: 2ac3 8fbc a6a5 74b8 4291 07bb ef40 96b6
00000080: 3bc7 0dbc e86d 29bb d054 80bb 8463 ccbb
00000090: ecba c6bb f4e1 82bc 93c9 fdba ae7d d5b7
000000a0: cb9b aa3b 87b1 05bb e3ba 33b7 dfd2 4630
000000b0: 9931 0dbb d6c3 64bc 2459 d23c 2667 21bc
000000c0: 4a20 b6bb f681 eebb b10c 7dbc ff90 8ebb
000000d0: ced0 e2b8 0cf7 3b3c 7ee1 d3bc 6f22 e833
000000e0: 1c25 8fbb 3129 15b2 c0e3 9cbb 7d26 cf3c
000000f0: 5a34 6d3c 4612 86bb 976b 8b3b d2e7 e6bb
00000100: 2ad3 00bc 0ce9 e5bb 983b 14bb 8087 c5b6
00000110: 7cc2 68bc c7ed d5bb cecf 88bb 6ec9 4ebc
00000120: 43e8 babc d417 aeb7 8cc8 e3bb fd7d acba
00000130: c458 2535 1aa2 ccbc 52ad d7bb 1c2a e23c
00000140: efba 19bb 3f23 e5bb ec20 39b3 bc2f ebbb
00000150: b0c9 723c 4867 dfae f8d7 1dbb 77cf cc39
00000160: e67b 3fbb cc1f 393c 59a0 87bb 2d38 163d
00000170: 777f 3fb9 eb89 51b8 0571 95bb 5870 f2bb
00000180: 4c4c 6cbc 6c6a 06bc 06e3 a839 b450 92b9
00000190: d752 f4bb 43f0 19bb 60a7 ac3b 1167 c3a0
000001a0: de44 c3bc be79 003c 7c77 9b2d e9c9 adbb
000001b0: a6e0 803c b434 49b9 f192 69bc 3546 16b3
000001c0: 9a7d 7a3b 8675 fdb2 6338 abbc fc21 3ebc
000001d0: f6c2 07bc 5f76 debb 5748 86bb 24db 64bc
000001e0: 3440 fd3b 324b c3bb 1a9b 513b 123f f939
000001f0: c8cd 68bc 64ea ed3c ba49 0f31 5609 59ba

network_body._body_endoder.seq_layers.2.weight f4 [128, 128]
0.15240979 -0.009371188 -0.03042518 -0.023881394 -0.07313252 -0.10469814 -0.026223686 0.09943842
0.011929123 0.0014512446 0.021472797 0.018643389 -0.07510318 0.004616924 -0.048669517 -0.08277354
0.11650797 -0.041862123 -0.040581644 0.049201343 0.12378621 0.11017276 -0.0685006 -0.096349575
-0.033676103 0.11980408 0.014465587 0.0011678594 0.030761626 -0.11452217 -0.03156641 0.040213596
0.1447336 0.08819338 -0.035346113 -0.043915007 0.04884802 0.10414679 -0.021742012 0.0070642103
0.016081134 0.035621636 -0.116029166 -0.07648708 0.06758396 -0.009832689 -0.050028943 -0.0598031
-0.060266316 0.010037728 0.062998354 0.016386349 0.048865817 -0.064960994 0.09709633 0.31474012
0.13411273 -0.097154275 0.09994445 0.022371987 -0.10491111 -0.08875134 0.06296106 0.01697543
0.041901767 -0.093691066 0.005511865 0.21594425 -0.046964377 0.101336464 0.05094917 0.028714193
0.056362182 -0.072377466 -0.10262996 -0.017389107 -0.07151319 0.07390321 0.00662288 -0.050779432
-0.043285858 -0.09078076 0.15813796 -0.005316154 0.092332594 -0.097866565 -0.094239525 0.05172455
-0.042535014 -0.027757447 0.09089623 0.19372442 -0.123885304 0.19744873 -0.013592575 0.080004774
0.07656069 -0.0932547 -0.046854626 -0.09294091 -0.045231443 -0.018111259 0.10551221 0.09345839
0.0154973315 -0.034312416 0.04496179 0.09900898 -0.02230594 0.026260946 0.111215696 0.092862606
-0.07284677 0.019706404 -0.08236385 -0.06578538 0.0942993 -0.0013659804 0.026153965 0.06820625
-0.24773726 -0.04417072 -0.070846185 -0.018899696 -0.07988127 -0.026061345 -0.12689161 0.018611468
-0.1158179 0.03599207 -0.060411256 -0.009512078 0.04430574 0.012761777 0.038432363 -0.09164932
0.118007466 -0.03570892 0.036245637 -0.07052336 -0.15108734 0.04490443 0.023938812 0.074733704
0.06526129 0.08776177 0.05099608 0.14879136 0.12701482 0.044243325 0.011553958 -0.09273924
-0.036306825 -0.1699375 0.05269519 -0.0038079238 0.16683102 0.037092213 -0.18153371 0.072710656
-0.068124875 -0.09793101 -0.045033105 -0.14407194 0.17252 -0.068112396 0.10250278 -0.045638796
0.04607537 -0.22249533 0.12204606 0.11848636 -0.13692252 0.07317865 -0.07078949 -0.026235685
-0.13728221 -0.017263273 0.09109698 0.03805481 0.009223291 0.24645358 -0.10392877 -0.023261767
0.05620179 -0.07628745 0.05274388 -0.06236162 0.025685044 -0.08201208 -0.0039426214 0.03380202
0.052538637 -0.11196901 0.016771007 -0.12109694 0.065010175 0.04719498 0.18147458 -0.04772657
-0.062096015 -0.06782546 -0.0552226 -0.016907535 0.24107344 0.08842124 -0.0027549833 0.14548804
0.16123411 -0.108492 0.07907213 -0.08984255 -0.04803601 0.0855977 -0.0929105 -0.041160643
-0.020772235 0.020730294 0.014742006 -0.1607297 -0.043493085 -0.0066701034 -0.0052782646 -0.021523433
0.10009042 0.21080247 0.14554408 -0.08960453 -0.011906297 0.035012636 0.109025456 -0.15012808
0.022404002 0.0071551367 -0.12441503 -0.02775986 -0.015245421 -0.13277143 -0.045171965 -0.10297128
-0.10743489 0.024246538 0.027633004 -0.0044507226 -0.04786426 -0.012700405 0.08952377 -0.161696
0.104135 -0.027146777 -0.023036653 0.05162383 0.018570434 -0.16300161 0.095824905 -0.110212214
00000000: 5011 1c3e 9c89 19bc 3a3e f9bc eaa2 c3bc
00000010: 81c6 95bd fa6b d6bd 0ed3 d6bc 5fa6 cb3d
00000020: 5e72 433c b037 be3a b8e7 af3c 05ba 983c
00000030: b2cf 99bd 9149 973b b059 47bd 2c85 a9bd
00000040: bb9b ee3d 9e77 2bbd f038 26bd 5987 493d
00000050: a083 fd3d 42a2 e13d 0b4a 8cbd ed52 c5bd
00000060: f4ef 09bd d75b f53d 1201 6d3c dc12 993a
00000070: ceff fb3c 998a eabd c84b 01bd 03b7 243d
00000080: 0b35 143e bb9e b43d 16c7 10bd 39e0 33bd
00000090: dd14 483d ea4a d53d 4e1c b2bc e47a e73b
000000a0: 95bc 833c fee7 113d b3a0 edbd 42a5 9cbd
000000b0: 7669 8a3d 4919 21bc 26eb 4cbd 18f4 74bd
000000c0: d0d9 76bd 4875 243c 4805 813d aa3c 863c
000000d0: 8627 483d 450a 85bd 71da c63d 9e25 a13e
000000e0: d954 093e d2f8 c6bd adaf cc3d 7545 b73c
000000f0: a3db d6bd 43c3 b5bd baf1 803d 0f10 8b3c
00000100: 30a1 2b3d 1ae1 bfbd e09c b43b 7d20 5d3e
00000110: b85d 40bd 7e89 cf3d 14b0 503d 073a eb3c
00000120: 08dc 663d a33a 94bd a82f d2bd 9a73 8ebc
00000130: 8275 92bd 915a 973d bf04 d93b 18fe 4fbd
00000140: 834c 31bd 43eb b9bd ebee 213e 2233 aebb
00000150: df18 bd3d 446e c8bd a700 c1bd 1fdd 533d
00000160: 3239 2ebd 9663 e3bc cd27 ba3d b25f 463e
00000170: 94b7 fdbd 0030 4a3e 64b3 5ebc 8bd9 a33d
00000180: dacb 9c3d 52fc bebd a3ea 3fbd ce57 bebd
00000190: 9b44 39bd 105e 94bc c916 d83d 1d67 bf3d
000001a0: 85e8 7d3c 2d8b 0cbd db29 383d 38c5 ca3d
000001b0: f2ba b6bc 3221 d73c 0ec5 e33d c02e be3d
000001c0: b030 95bd 536f a13c 61ae a8bd 7cba 86bd
000001d0: fe1f c13d b20a b3ba d740 d63c b8af 8b3d
000001e0: d6ae 7dbe 5bec 34bd ce17 91bd 89d3 9abc
000001f0: cb98 a3bd 9a7e d5bc e0ef 01be 1477 983c
00000200: ef31 edbd 6c6c 133d cb71 77bd 8cd8 1bbc
00000210: f079 353d c616 513c 416b 1d3d a4b2 bbbd
00000220: e6ad f13d 8443 12bd 4e76 143d 8d6e 90bd
00000230: a4b6 1abe b5ed 373d 541b c43c fc0d 993d
00000240: b6a7 853d 71bc b33d 44e1 503d c35c 183e
00000250: 2c10 023e 7d38 353d d04c 3d3c 12ee bdbd
00000260: 77b6 14bd 1904 2ebe e9d6 573d 5c8e 79bb
00000270: c0d5 2a3e 01ee 173d f9e3 39be 53e9 943d
00000280: 0e85 8bbd 0e90 c8bd a274 38bd 9887 13be
00000290: 15a9 303e 837e 8bbd faec d13d bfef 3abd
000002a0: 87b9 3c3d d1d5 63be 49f3 f93d faa8 f23d
000002b0: 6b35 0cbe b0de 953d 15fa 90bd 38ec d6bc
000002c0: b593 0cbe b56b 8dbc 0e91 ba3d 5cdf 1b3d
000002d0: 491d 173c 545e 7c3e 9bd8 d4bd 768f bebc
000002e0: d933 663d 983c 9cbd f709 583d e66e 7fbd
000002f0: 7169 d23c f3f5 a7bd 1b31 81bb fd73 0a3d
00000300: c132 573d 0250 e5bd 5a63 893c ac01 f8bd
00000310: 0e24 853d 864f 413d 79d4 393e f07c 43bd
00000320: 6458 7ebd 13e8 8abd 1831 62bd ac81 8abc
00000330: f5db 763e 3216 b53d f38c 34bb d1fa 143e
00000340: 8e1a 253e 0e31 debd 92f0 a13d 5fff b7bd
00000350: 68c1 44bd d94d af3d dc47 bebd 1098 28bd
00000360: 892a aabc 94d2 a93c 7488 713c 5496 24be
00000370: ce25 32bd e290 dabb 4bf5 acbb e951 b0bc
00000380: 35fc cc3d 9adc 573e 8209 153e 9482 b7bd
00000390: a112 43bc 6969 0f3d bd48 df3d 2dbb 19be
000003a0: 9988 b73c a375 ea3b 4fcd febd a568 e3bc
000003b0: eec7 79bc 3cf5 07be 3d06 39bd 9be2 d2bd
000003c0: d306 dcbd ada0 c63c 9c5e e23c 5ed7 91bb
000003d0: 500d 44bd 5c15 50bc 3d58 b73d a393 25be
000003e0: bb44 d53d eb62 debc 5db7 bcbc 8273 533d
000003f0: 0621 983c e5e9 26be d93f c43d f1b6 e1bd
